signvoice_ai/models/gesture_model.pth (torch, 37913 bytes, 4 tensors)

fc1.weight f4 [128, 63]
00000000: 3c4f 173d ce7b 85bd e867 fb3d 3cde f03d
00000010: 715f 933e 1175 1abe 93f1 d7bd 1756 803e
00000020: a4dc 73be 2463 c1bd 22c1 fa3d 83c0 aebe
00000030: 9ee6 2c39 6c91 7c3e 1ba2 5abe 990f 98bd
00000040: 2dd9 1fbd 750b 9bbe 0126 b43d 35ca 9239
00000050: d750 87be 6ac5 0b3b 864a 1dbe 22dd 67be
00000060: ab2e d53d 51b4 3fbe 68f0 16be 732c 023e
00000070: d699 923c 79d4 b4be acbd 303d 6898 7cbd
00000080: 5f93 76be bb60 fa3d e489 963d 0969 3abe
00000090: 44c2 1dbd 0599 283d d5ff 98be 5f8b 313e
000000a0: b86c ba3d 4a08 b4be 5c55 a13d 34ac 47be
000000b0: 9559 8fbe 9eb0 c03d 3836 943d 2a53 77be
000000c0: cfa8 203e 8430 b2bd b9e1 d3bd 1884 1b3e
000000d0: b890 c53d ccdf 30be 2df7 8fb9 c3e8 40be
000000e0: f109 47be 081c c23d 5fd6 50be feed 00be
000000f0: 1b4d 1d3e 76e7 61be 892d 60be 4043 d43d
00000100: 5885 8ebd 164b 54bd 9fcb 80bb ae77 dbbd
00000110: 227f babd a67e 263c 7088 143c 3bae d63d
00000120: 5a06 05bd 9310 9e3d 952e f53c a9e8 de3d
00000130: 39ad f6bc 3939 7b3d c7b2 4ebd e418 01be
00000140: b366 243d 67f5 adbd 9a32 da3c d322 bfbd
00000150: 1885 563d 66b3 6dbc bc9a dfbd d7eb 4bbd
00000160: bf67 bf3d 68e9 9d3d ac8e 653d e77a cf3c
00000170: 5c4f fdbc d883 d0bc 45a3 133d 3ed3 a6bd
00000180: d8bf 9a3c 877d db3c 4bc7 593d 6c3b 74bd
00000190: 0160 a93c 7dd7 fabc 74e9 463b a994 92bc
000001a0: f92e 0fbd ec87 1d3d 4452 f0bd 5861 f43d
000001b0: ff77 c6bd 8fc6 d03d 1e16 a5bc 4c10 ad3d
000001c0: e4cc f739 3f9e 7ebd ab79 fb3c 9e77 0c3d
000001d0: b377 df3d ae44 9f3c 6d1c f7bd a6f8 6abd
000001e0: ef4c 893d 7616 0abd 439b 5bbd 40c0 99bd
000001f0: e815 a63c 623b ba3d fcc0 8b3d 2046 be3d
00000200: a0a3 fdbd 70a8 89be 3a4b 9cbd 0672 153e
00000210: 6bd1 cebd 4975 6b3a 4cbd aa3d 6089 35be
00000220: f143 0a3d 4a53 f43d b261 7ebe d9f2 debd
00000230: a990 333e 288b 8fbc 83d5 c33d 2e27 cd3d
00000240: 1413 223b 07c5 d23c aacb 583e cb20 52be
00000250: 3050 4f3d 3fdc 533e 109f 46be 4121 5b3d
00000260: 7eea e73d d193 6d3c f50a 943d dc50 273e
00000270: 7ec7 7fbd e903 83bd ca9e 613a 7728 463c
00000280: ed2f d7bb 60fc 57bd f180 6cbd 914a 223e
00000290: 2f7d 31bd 9af7 c2bd 4e29 96bd 2a40 233d
000002a0: 1a55 17be f63b af3d 7969 d5bc 6b21 36be
000002b0: 14c4 5ebd 04bd 81bc 5f03 b9bd 1ea7 a63d
000002c0: 3a83 a63d 2804 ac3c d13a bd3d 1920 003e
000002d0: a18b 2cbe b12f aabd 31fa 0bbc 8fac d3bd
000002e0: e09a a83a 996d 7ebc 6ef2 fcbc 1744 38bd
000002f0: 6cc9 433e e800 463d 3096 553d 0031 e73d
00000300: d0b8 c83d 3885 7c3d 2c7a 8fbc 780c 26bc
00000310: e4c0 b6bd eecd b73d 1471 afbc d0c8 23bd
00000320: a0ca 4a3c f8f2 ff3d f036 e53d 3107 a5bd
00000330: 7c8c 00be 7c22 c9bd 2024 3f3d be88 58bd
00000340: 24f0 963d a8bd 90bc 50bb b03d bae4 90bd
00000350: 0b6c 8cbd 30a0 4a3c 271e 9bbd e037 83bb
00000360: cad8 48bd b0b3 66bd ad5e cdbd cc51 4d3d
00000370: f2bc 95bd 6ce2 dabd f8fd 5bbc 7041 9f3c
00000380: 7487 6cbd faeb 87bd e045 95bb 8489 a8bd
00000390: bcec d7bc d4bb e0bd 3c7e a7bd ece1 d5bc
000003a0: f0b1 e13d b489 653d 0081 6bba 4ee6 e13d
000003b0: a4f0 163d 18e7 fb3d cac8 e43d b876 8dbd
000003c0: f764 a4bd 8c89 b73d 7122 86bd a4f4 d83d
000003d0: f0f4 643d 982b d0bd 2060 da3d d8a2 b73c
000003e0: 2612 8d3d b544 c0bd 805b f83c 723d 1cbd
000003f0: 147b 3d3d 74e0 04bd fc31 87bd 6709 2fbe
0.0369408 -0.065177545 0.12275678 0.11761138 0.28783754 -0.1508372 -0.105441235 0.2506568
-0.23814636 -0.09442738 0.122438684 -0.3413125 0.0001648911 0.24664849 -0.21350901 -0.0742485
-0.039025474 -0.3028218 0.08796311 0.00027997946 -0.26428863 0.0021327385 -0.1536046 -0.22642949
0.10409292 -0.18721129 -0.14740145 0.12712269 0.01789562 -0.35318354 0.043149635 -0.061668783
-0.24079655 0.12225481 0.07350519 -0.1820413 -0.038515344 0.041161556 -0.29882684 0.17338322
0.09102768 -0.35162574 0.07877609 -0.19499284 -0.27998033 0.09408687 0.07236904 -0.24152818
0.15689395 -0.0870066 -0.103457876 0.15187109 0.096467435 -0.17272872 -0.00027459246 -0.18838792
-0.19437386 0.09478003 -0.20394276 -0.12590787 0.15361445 -0.22060952 -0.2189237 0.103643894
-0.06959027 -0.05182942 -0.0039305235 -0.107161865 -0.0910628 0.010162031 0.009065732 0.104824506
-0.03247676 0.07718005 0.029929439 0.1088422 -0.030111896 0.06133387 -0.050463464 -0.12607151
0.040137004 -0.084940724 0.026635457 -0.09332814 0.05237302 -0.014508104 -0.10918185 -0.04978546
0.0934596 0.07710534 0.056044266 0.02532716 -0.03092163 -0.025453493 0.036044378 -0.0814576
0.018890306 0.026793255 0.053168576 -0.05962698 0.020675661 -0.030620331 0.0030351551 -0.017893152
-0.034956906 0.038459703 -0.11734441 0.11932629 -0.09690856 0.10194122 -0.020152148 0.08450374
0.00047264167 -0.062162634 0.030697664 0.034293763 0.10911503 0.019441929 -0.12065969 -0.057366036
0.06704127 -0.033712827 -0.053614866 -0.07507372 0.020274118 0.090933576 0.06823918 0.09290719
-0.123847246 -0.2688632 -0.07631536 0.14594278 -0.10098537 0.00089820154 0.08336887 -0.17728186
0.0337562 0.11929949 -0.24841955 -0.10886163 0.17535652 -0.01752241 0.095622085 0.100172386
0.002473061 0.025728716 0.21171442 -0.20520322 0.050613582 0.20689486 -0.19396615 0.05349851
0.11324023 0.014500574 0.072286524 0.16339439 -0.06244611 -0.0639723 0.000860673 0.0120946085
-0.0065669925 -0.052730918 -0.057740156 0.15848757 -0.043332275 -0.095198825 -0.07332097 0.039856113
-0.14778557 0.085563585 -0.02605127 -0.17786185 -0.054386213 -0.0158372 -0.09033846 0.08137344
0.08130498 0.020998076 0.09239734 0.12512244 -0.16850139 -0.08309878 -0.008543537 -0.10335647
0.0012863539 -0.01552906 -0.030877318 -0.04498681 0.19119805 0.048340708 0.052145183 0.11288643
0.09800875 0.061650485 -0.01751431 -0.010134809 -0.0892351 0.08974825 -0.021416225 -0.03998643
0.012377411 0.124975145 0.11192119 -0.08058012 -0.1255359 -0.098210305 0.04666531 -0.052864783
0.07370022 -0.01766856 0.08629477 -0.07074876 -0.06856545 0.012367293 -0.075741105 -0.0040044636
-0.04903487 -0.056323707 -0.100278236 0.050126836 -0.07311429 -0.10687718 -0.01342725 0.019440383
-0.057746366 -0.06636806 -0.004555449 -0.08229354 -0.026358001 -0.10973325 -0.08178374 -0.026108705
0.11020267 0.056039527 -0.0008983761 0.11030255 0.036850587 0.12299937 0.1117111 -0.069074094
-0.0802707 0.08961782 -0.06549538 0.105935365 0.055897653 -0.10164565 0.10662866 0.022416517
0.06888227 -0.09388105 0.030317068 -0.038144536 0.046259955 -0.032440618 -0.06601331 -0.1709343

fc1.bias f4 [128]
00000000: d3e6 9bbc deb9 56bd 89dc c13d efe0 d6bd
00000010: 93ea 943d afca cd3d c66f 75bd b0aa 9ebd
00000020: b1d9 363e 71b0 703d f90d 6e3d f4e3 423d
00000030: a4a5 87bb a5fe e33d ba09 403d e36b 143d
00000040: f65a a23c e3d5 213e 06d1 adbd 105d 283e
00000050: 1c2a 80bd 49a2 cbbd 6e22 fc3d 2984 433e
00000060: d051 3b3e d86c 3e3d 49e9 153e 207d 6e3d
00000070: bd9b 84bd aa45 aa3d 742e cabc bb8a 543d
00000080: 7acc 06be ffdb 9c3d 61f3 c43c e6d3 e33c
00000090: 5f18 3c3e 02fe 713c b509 9d3d 7d32 263d
000000a0: 521f 493c 13ce 043b a434 033d 55a3 bd3d
000000b0: 889b 1c3c 0ca4 063e 2c62 3c3d f8a5 2bbc
000000c0: 4f3f 61bd d444 bcbc 3f61 bb3d febc 5dbd
000000d0: 0df9 043e 64c8 7e3e bc80 ddbd 4005 3a3d
000000e0: 885a c8bd c071 6ebd 76c2 d23b 4fa6 403e
000000f0: a719 0a3d b0a1 06be 1cfe 16bd 5e6f 3c3a
00000100: f968 a5bd 7f01 e33d 9856 083e 4e03 cdbd
00000110: 1f2c 183e ea81 3dba 8dd4 303e 7dcc 853e
00000120: f498 2a3e c72b 92bd 204c e6bd a514 a7bc
00000130: ab55 e03d 8647 ae3d d7f9 b03d 7634 8f3d
00000140: 8048 48bd 2806 283d 70f4 c6bd 3a3f f0bd
00000150: c5c0 5f3e b179 083e 78e9 b9bd 897b 883d
00000160: d3e0 f8bd 5ce0 083d a89d bebd 002f dabd
00000170: bec2 9cbd accc 163e 43a4 afbd 1ee2 8c3d
00000180: 4b88 e23d 2aa1 523e 3824 c43c bc07 bc3d
00000190: 8419 bfbd f611 f03d 3c63 0d3e c0cf f93c
000001a0: 8ce3 1e3d a354 003e c008 01be 465a bebd
000001b0: a542 363e becc b6bb 7e74 21bd 8f15 5f3d
000001c0: 93cc 7ebd c5dd 173d 6046 8b3d 5649 d03a
000001d0: cba0 37bd 191f 1e3e c99e 0b3d 8786 7f3e
000001e0: 09f9 62bd 818a 0abe 633f 733d 1517 7cbd
000001f0: c108 e63d b72e 403c 0653 a53d ca0f 3cbc
-0.019030964 -0.05242335 0.09465892 -0.104921214 0.07271304 0.100484245 -0.05992105 -0.077474
0.1785648 0.058762018 0.058118794 0.047580674 -0.004139619 0.11132554 0.046884276 0.0362357
0.019818764 0.15804248 -0.08487134 0.1644175 -0.06258032 -0.09943063 0.123112544 0.19093384
0.18292928 0.04649052 0.14639772 0.058224797 -0.06475017 0.083140686 -0.024680354 0.051890116
-0.13163939 0.076591484 0.024041833 0.027811002 0.18368672 0.014770033 0.07667867 0.040575493
0.012275534 0.0020264431 0.032032624 0.09259669 0.009558566 0.13148516 0.04599206 -0.010476582
-0.054992016 -0.022982039 0.091494076 -0.054135315 0.1298563 0.2488113 -0.1081557 0.045415163
-0.097828925 -0.05821395 0.006431873 0.18813442 0.03371587 -0.13147616 -0.03686343 0.0007188226
-0.080766626 0.1108427 0.13314283 -0.10010396 0.14860581 -0.00072291365 0.17268582 0.26132575
0.1665991 -0.07137256 -0.112449884 -0.020395586 0.1095384 0.08509736 0.08641403 0.06992428
-0.048897266 0.041021496 -0.097145915 -0.117308095 0.2185088 0.13327672 -0.09077734 0.066641875
-0.12152257 0.03341709 -0.09307414 -0.10653496 -0.076543316 0.14726514 -0.08576252 0.06879066
0.11061152 0.20569292 0.023943052 0.09181163 -0.093310386 0.11722176 0.13807386 0.03049457
0.038791224 0.12532286 -0.12600994 -0.09294562 0.1779886 -0.0055786064 -0.039417736 0.05446392
-0.062206816 0.03707673 0.06800532 0.0015890996 -0.04483108 0.1544155 0.034086976 0.24953662
-0.05541328 -0.13529398 0.059386622 -0.06154545 0.112321384 0.011729888 0.08072476 -0.011478374

fc2.weight f4 [5, 128]
00000000: 362f ab3d 079b 90bd dd27 d8bd c004 c23b
00000010: de76 503e 0c23 bb3d 0004 533e 00c5 37bd
00000020: 3524 573d 9c4d 2a3e 6408 833d 5336 61be
00000030: 1e9d 1e3e 27e8 1cbc cfa8 023e a72d 6abd
00000040: 86ea fe3d 36cc d03d 5151 2d3e c1a9 2abe
00000050: a922 4bbd c5d2 08bd 74dc 163e 8d72 823c
00000060: 7247 bd3d e328 553e e190 49be 1758 073e
00000070: 143f c7b9 651d 193e 9639 913d 5a2f 563e
00000080: f300 31bd b4fd 81be 3e7c 453d 6b33 89be
00000090: 22a4 353e 581a 053e cdce 753e ba05 16be
000000a0: 6134 0abd 50b7 67bd 4d31 f2bd a52e 63be
000000b0: 72d2 abbd 8df0 a4bc a7b5 213e 4591 213e
000000c0: 8859 49bd 0a2d 563d 98e1 063e 1c54 5cbd
000000d0: 1e7a 663e fe19 32be eedf 3a3d 60c7 0fbe
000000e0: aaf2 983d 953b 453e 10ca 273e 552b c13c
000000f0: cd71 37be d319 69bd 98fc 92bc b8cd 4c3d
00000100: dd5b 24bc af25 233e 1c03 333d 2337 aa3d
00000110: 0b33 f5bd 873f 293e e511 93be fe57 8bbd
00000120: 6891 083e 1f13 42bd b691 373d 2b2b 14bd
00000130: 6ceb 6abe 2cef 8ebc ffc1 d93d bd53 bfbd
00000140: 1dac 8bbd 519b 02be ec93 9fbc feaa 203d
00000150: 81f9 5fbe c417 443e e01a e63b 36a0 38be
00000160: a26f 683d a990 123e c110 8a3d 7cbc 983e
00000170: a6f7 bc3d 2a12 953c 7717 00bd 5522 4abe
00000180: 11df 6d3e 03ec 14bc 4932 0fbc f6be 0d3e
00000190: 602b b23b e0be 3f3e 7ff5 2d3e d01f 0c3e
000001a0: 46c8 39bc 375d 163e ac77 253d 1000 023e
000001b0: e4da da3c 7e5e 343e 26dc 2fbd 27c0 343e
000001c0: 8f82 3b3e 81c4 5d3e 9d24 7c3e 9c06 57bd
000001d0: 56e2 32be e2b6 a43c 1f44 bd3c f492 54bb
000001e0: fdd1 b2bd e939 56bd 441f f23d 8078 a83d
000001f0: ed14 4b3e 535d 80be 5aed 643e 887e f23d
00000200: 2c1c 0dbe 7233 86bb 0496 d13c d172 b2bd
00000210: a35f bebd becf e9bd adf1 dfbd bfe7 0a3c
00000220: ddb8 4e3e b4c5 963d 4080 32be 2024 04bb
00000230: 7ab2 1b3a c2fb 0ebe cab7 a2bd 1501 65bc
00000240: 88fe 3ebe 62be e8bd 1143 73be 0074 623c
00000250: b87e 47bd 7ef4 41bb d74d e8bd a68a 82bd
00000260: ac95 073e 41db 7abe f6a3 323e 4324 9c3d
00000270: f977 413d 9494 f4bd d26e 0ebe 0ae8 31be
00000280: 7a53 debc 830c 863c 81fa 9ebd 767a 26be
00000290: 5d51 28be 3d00 02bd 8bf7 31be 3f5d a3bd
000002a0: 5ea0 ee3c c511 3c3d 1edb 68be 60a4 2b3e
000002b0: 2794 05be 1d6c dabd bf1d 24be 37b8 85bd
000002c0: 8afe 9bbd cfe0 1ebe 5da8 813d f1f0 83bc
000002d0: 6165 64be 9793 323e 3cfd 61bd 00b7 17bd
000002e0: 73fe 8dbe aa36 82be 94c9 97be 4493 1f3e
000002f0: 8154 6fbd 690d 5c3d 530c a53d 61ef 22be
00000300: 8fc0 49bc cd49 073d 0e1c dfbd 3855 9bbd
00000310: 1db3 89bd 7ee6 a5bd acf5 c73d ef01 243e
00000320: 3238 a63c fb4f cbba 8011 7e3c 692e 4bbd
00000330: c804 393e 2f03 b0bd 8521 91be 082a 053e
00000340: cc35 063d 5d05 06be f662 5c3d 04c7 acbd
00000350: cc8f 333d 7692 cfbd b08e 68bc b818 e83d
00000360: 408a afbc 626f ddbd f8ae 2ebc 61b4 3ebd
00000370: 36c5 c0be bd55 0bbe a06b 023d b595 59be
00000380: 02ac 333e eded 8a3d 5e7d 583a d92f 043e
00000390: 752a 89bd 4215 a33e da06 9ebd 0808 08be
000003a0: 8ff4 a7bd 3d6f 82bc 25e6 a83d 885a a0be
000003b0: 67bc 6e3d c28e d8bd 8a1c 353c bc76 63be
000003c0: 3130 eabd ee6e 8b3d d2b7 44be e988 283c
000003d0: a38a 72be 8f3a bd3c a4ce 3bbe 48fe 2e3e
000003e0: eae6 7bbe 0bc5 12bc 0438 4bbc fca3 bebd
000003f0: bda5 2cbe 7e33 55bc aeb4 15be 0e57 4abe
0.08358614 -0.07060819 -0.10554478 0.0059209764 0.20357844 0.09137544 0.20606995 -0.04486561
0.052524764 0.16631168 0.06398085 -0.2199338 0.15489623 -0.009576834 0.12759708 -0.057172444
0.124470755 0.101952 0.16925551 -0.16666318 -0.0495936 -0.03340413 0.14732534 0.015923763
0.09242143 0.20816378 -0.19684173 0.13217197 -0.00038003235 0.1495262 0.07091062 0.209165
-0.043213796 -0.25388873 0.04821419 -0.2679704 0.17738393 0.1299833 0.2400467 -0.14650622
-0.03374136 -0.056571305 -0.1182581 -0.22185762 -0.08389749 -0.020134235 0.15791951 0.15778072
-0.04915765 0.052289046 0.13171995 -0.05379115 0.22507522 -0.17392728 0.045623712 -0.140409
0.074681595 0.1926101 0.16385674 0.023580233 -0.17914505 -0.056909394 -0.017942712 0.050000876
-0.010031668 0.15932344 0.043704137 0.08311298 -0.11972626 0.1652814 -0.2872459 -0.068038926
0.13336718 -0.047381517 0.044816695 -0.03617398 -0.22941369 -0.01744803 0.10632705 -0.09342144
-0.068199374 -0.12754561 -0.019479714 0.03922557 -0.21872522 0.19149691 0.0070222467 -0.18029866
0.056747086 0.14312996 0.06741477 0.29831302 0.09226923 0.018197138 -0.031272378 -0.19739659
0.23229624 -0.009089473 -0.008740016 0.13842377 0.0054372996 0.18725157 0.1698818 0.1368401
-0.011339253 0.14683996 0.04039733 0.12695336 0.026715703 0.17614171 -0.04293456 0.17651425
0.18311523 0.21656992 0.24623342 -0.052496538 -0.17469153 0.020106737 0.023103772 -0.0032436224
-0.08731458 -0.05230132 0.1182237 0.082261086 0.19832201 -0.250712 0.22356167 0.1184054
-0.13780278 -0.004095488 0.025584228 -0.08713306 -0.09295585 -0.11416577 -0.10934768 0.008478104
0.20187707 0.07361928 -0.17431736 -0.0020163134 0.0005939376 -0.13963225 -0.07945211 -0.013977309
-0.18651783 -0.11364438 -0.23756053 0.013821602 -0.048704833 -0.0029595192 -0.11342972 -0.06374101
0.13240689 -0.24497701 0.17445359 0.07624104 0.047233555 -0.119424015 -0.13909462 -0.17373672
-0.027139414 0.016363388 -0.077626236 -0.16257653 -0.16437288 -0.03173851 -0.17379586 -0.0797677
0.029129203 0.045915384 -0.22739837 0.16761923 -0.13044797 -0.10665152 -0.16026972 -0.06529277
-0.07616909 -0.15515445 0.06330941 -0.0161061 -0.22304298 0.17439114 -0.055173144 -0.037039757
-0.27733192 -0.2543233 -0.2964598 0.15583521 -0.0584302 0.053723726 0.08058991 -0.15911628
-0.012313976 0.033029366 -0.10894023 -0.075846136 -0.06723616 -0.081006035 0.09763655 0.16016363
0.020290468 -0.0015511507 0.015507102 -0.049604807 0.1806823 -0.08594357 -0.28345886 0.13004315
0.03276615 -0.13087983 0.053805314 -0.08436397 0.043838307 -0.10135357 -0.014194176 0.1133284
-0.021428227 -0.1081226 -0.010661833 -0.04655874 -0.3765046 -0.13606925 0.03184092 -0.21248515
0.17546085 0.06783662 0.0008258427 0.12908877 -0.06697551 0.31852156 -0.077161506 -0.13284314
-0.08200943 -0.015922183 0.082470216 -0.3131907 0.058285143 -0.10574104 0.0110541675 -0.22213262
-0.11434973 0.068082675 -0.19210747 0.010286548 -0.23685698 0.023099212 -0.18340546 0.17089188
-0.24599805 -0.0089581115 -0.012403492 -0.09308621 -0.16860099 -0.013012765 -0.14619705 -0.19759771

fc2.bias f4 [5]
00000000: d4ee 55bd fc9b b9bc 95b3 a13d 3a20 f4bd
00000010: baf7 d1bc
-0.052229717 -0.022657387 0.07895581 -0.11920209 -0.02563082
