signvoice_ai/models/gesture_model.pth (torch, 37401 bytes, 4 tensors)

fc1.weight f4 [128, 63]
0.009252682 -0.0062853023 -0.0053835735 -0.023233294 0.1836276 -0.058308482 -0.02011101 0.0759562
-0.057833306 0.03938741 0.20007466 -0.2142762 -0.1481268 0.2188504 -0.26532504 0.21252169
0.17407633 -0.2684795 0.21520613 0.1775511 -0.10121653 0.0054925983 0.17154457 -0.2738014
0.20833392 0.19303001 -0.17648622 0.03316007 0.057213493 -0.09631991 0.006649328 0.23245569
-0.15104131 0.15514511 0.17866856 -0.22057532 0.069733456 0.1967047 -0.07681826 0.17466344
0.17204869 -0.19321033 0.05694683 0.017599367 -0.21715128 0.14675616 0.14547776 -0.22724578
0.16760416 0.07831056 -0.05130215 0.20280021 0.20851368 -0.15395378 0.06291997 0.04352232
-0.038520876 0.13037838 0.15814942 -0.04022963 0.122724764 0.07089594 -0.14285836 0.03829652
-0.11110471 0.11575481 0.03975442 0.023303494 -0.04789166 0.023856893 0.09756413 -0.0801776
-0.0066250116 0.03298305 -0.015101023 -0.11347123 -0.06076017 -0.07568259 -0.103506364 0.064735755
-0.08921409 0.113495275 0.024992138 0.04101701 0.05877614 0.059982374 0.06713842 -0.124911554
-0.10306415 -0.080607906 -0.1177426 -0.037764303 0.020395607 -0.071321696 0.023815244 -0.0813498
-0.021838635 0.036528587 0.02970764 0.10371925 0.0145252645 -0.026462696 -0.07533689 0.07638924
-0.066291414 -0.02856034 0.06679751 0.121988654 0.06571297 -0.015076213 -0.0768739 -0.10459485
0.010741472 0.015498474 0.03825216 0.10924204 0.010845348 -0.04332774 0.0044290125 -0.00801155
0.019240588 0.02390784 0.064439535 0.03553839 0.06762399 -0.030081458 0.066995606 -0.064820744
-0.035166666 -0.03301662 0.020251505 0.039518666 -0.03301473 -0.1523893 0.06181639 -0.13790268
-0.094136894 -0.17940547 -0.033375114 -0.17892946 0.016824065 -0.021891916 0.0058192373 0.13981482
-0.05214497 -0.1181764 -0.127879 -0.15576178 -0.029454704 0.05695214 -0.15443163 -0.105055355
-0.09331246 0.05241665 0.03024509 -0.07302152 -0.05640415 -0.0880115 -0.009139766 -0.10099759
-0.18533128 -0.12240068 -0.15044996 -0.00042170248 -0.02196102 0.09108717 -0.18666403 0.010907227
-0.14791107 -0.14621274 -0.069039606 -0.14490847 -0.060612086 0.010533611 -0.020628132 -0.065473564
-0.1798008 -0.07465097 -0.043631252 -0.019727385 0.0711091 -0.02546505 -0.20284449 -0.17012498
-0.20367517 -0.12088635 -0.043064278 -0.05866017 -0.029521067 0.088340625 -0.10113127 -0.087438725
-0.11680768 0.00804516 -0.047322642 -0.07384637 0.086357854 -0.09177487 0.010879018 0.05619096
-0.07042312 -0.0043773577 0.11893138 -0.10854569 -0.067999244 0.08151299 0.0053527146 -0.023838645
0.04065243 0.02141483 -0.10104507 -0.1045922 0.039920144 -0.22983384 -0.07099027 -0.19919892
0.016314441 0.03873659 0.078111485 -0.157499 0.011020521 -0.040246394 -0.16909488 -0.10375893
-0.013443262 -0.17207564 -0.17326768 -0.17454585 0.13718808 -0.122671805 -0.11630327 0.13182905
-0.15356643 -0.20652276 -0.13739769 -0.16385925 -0.123874456 0.036458414 -0.022690535 -0.2073709
0.036661286 0.040481586 0.03429074 0.04172463 -0.035628 -0.21794571 -0.058848653 -0.14084895
-0.068812005 0.00987002 -0.19682357 -0.15656729 0.058608636 -0.08506937 0.045615852 -0.010890728
00000000: 9098 173c f0f4 cdbb b068 b0bb c053 bebc
00000010: e008 3c3e e0d4 6ebd d8bf a4bc ed8e 9b3d
00000020: 9ee2 6cbd b154 213d 5fe0 4c3e 386b 5bbe
00000030: 8dae 17be 521a 603e afd8 87be 499f 593e
00000040: 1141 323e 2576 89be ff5e 5c3e f5cf 353e
00000050: 9d4a cfbd 41fb b33b 61a9 2f3e b22f 8cbe
00000060: 7d55 553e a9a9 453e ceb8 34be dbd2 073d
00000070: b258 6a3d 5f43 c5bd 9be2 d93b dd08 6e3e
00000080: 93aa 1abe 5cde 1e3e e4f4 363e 7fde 61be
00000090: 6ad0 8e3d f56c 493e e452 9dbd f9da 323e
000000a0: 882d 303e eed8 45be 1441 693d 8c2c 903c
000000b0: e85c 5ebe 3f47 163e 1ff8 143e 1eb3 68be
000000c0: 6da0 2b3e 4961 a03d 3422 52bd dcaa 4f3e
000000d0: 9c84 553e 0fa6 1dbe 2fdc 803d 7644 323d
000000e0: 11c8 1dbd e981 053e ecf1 213e d3c7 24bd
000000f0: 1f57 fb3d e431 913d 7649 12be d0dc 1c3d
00000100: de8a e3bd dc10 ed3d 88d5 223d f8e6 be3c
00000110: 0c2a 44bd 886f c33c b4cf c73d 2734 a4bd
00000120: a016 d9bb 3c19 073d 486a 77bc 9b63 e8bd
00000130: a8df 78bd 79ff 9abd 25fb d3bd 2e94 843d
00000140: e0b5 b6bd 3670 e83d 50bc cc3c 7401 283d
00000150: 40bf 703d 14b0 753d de7f 893d a1d1 ffbd
00000160: 4c13 d3bd c215 a5bd 0823 f1bd beae 1abd
00000170: b014 a73c 1c11 92bd 3018 c33c b99a a6bd
00000180: f0e6 b2bc 009f 153d 705d f33c c26a d43d
00000190: 60fb 6d3c 4cc8 d8bc 3a4a 9abd f671 9c3d
000001a0: cbc3 87bd 60f7 e9bc 22cd 883d 30d5 f93d
000001b0: 8694 863d 3802 77bc 1070 9dbd d335 d6bd
000001c0: 00fd 2f3c 50ed 7d3c 4cae 1c3d 4aba df3d
000001d0: b0b0 313c 6e78 31bd 4021 913b e042 03bc
000001e0: 709e 9d3c 60da c33c e0f8 833d b490 113d
000001f0: 727e 8a3d 646d f6bc fe34 893d bdc0 84bd
00000200: ec0a 10bd 6f3c 07bd 7ce6 a53c 53de 213d
00000210: 743a 07bd f10b 1cbe 2f33 7d3d 5c36 0dbe
00000220: d8ca c0bd 11b6 37be 58b4 08bd 4939 37be
00000230: 9fd2 893c ad56 b3bc 4daf be3b 9e2b 0f3e
00000240: f795 55bd 7806 f2bd b6f2 02be 0480 1fbe
00000250: fe4a f1bc a646 693d 5323 1ebe 4327 d7bd
00000260: 9a1a bfbd d7b2 563d 8dc4 f73c 4f8c 95bd
00000270: 0a08 67bd 603f b4bd f5be 15bc d3d7 cebd
00000280: 7cc7 3dbe 35ad fabd 8e0f 1abe f317 ddb9
00000290: 99e7 b3bc e98b ba3d db24 3fbe 3ab4 323c
000002a0: 0076 17be cbb8 15be a364 8dbd e362 14be
000002b0: 6144 78bd 2b95 2c3c 54fc a8bc 0117 86bd
000002c0: b31d 38be 9ce2 98bd afb6 32bd 539b a1bc
000002d0: a6a1 913d 159c d0bc 77b6 4fbe 3e35 2ebe
000002e0: 3990 50be 4393 f7bd 2b64 30bd a545 70bd
000002f0: 2ad6 f1bc eeeb b43d e91d cfbd 1313 b3bd
00000300: dd38 efbd d9cf 033c 63d5 41bd c43c 97bd
00000310: 63dc b03d 77f4 bbbd e93d 323c 7e28 663d
00000320: ff39 90bd f06f 8fbb 4c92 f33d 344d debd
00000330: 3043 8bbd 48f0 a63d d365 af3b 4349 c3bc
00000340: 2a83 263d 276e af3c b8f0 cebd 6f34 d6bd
00000350: 4e83 233d 9059 6bbe 5963 91bd cdfa 4bbe
00000360: dda5 853c 42aa 1e3d eaf8 9f3d 6b47 21be
00000370: 6a8f 343c 67d9 24bd 3527 2dbe 907f d4bd
00000380: 2141 5cbc 9934 30be 156d 31be 26bc 32be
00000390: 087b 0c3e 5b3b fbbd 6930 eebd 32fe 063e
000003a0: 8540 1dbe b47a 53be fbb1 0cbe b8ca 27be
000003b0: e4b1 fdbd 6b55 153d 80e1 b9bc 0a59 54be
000003c0: 252a 163d 05d0 253d 7274 0c3d 72e7 2a3d
000003d0: aaee 11bd 292d 5fbe 490b 71bd b53a 10be
000003e0: 4fed 8cbd ddb5 213c 1e8c 49be 2d53 20be
000003f0: 9c0f 703d da38 aebd b0d7 3a3d 066f 32bc

fc1.bias f4 [128]
0.0038319197 -0.11341478 0.05707569 0.070019774 0.03417776 0.04232405 0.14925636 0.19900306
0.100240655 -0.09404747 -0.04834892 -0.023006694 0.13022903 0.15947056 -0.08113187 -0.11265796
0.07428092 -0.0047600036 -0.037224475 0.17354377 0.17252429 0.15477082 0.07127627 0.12868534
-0.039792288 -0.060136102 0.11768511 0.14984119 0.009355443 -0.0069613005 0.08561079 -0.11367664
0.0598869 0.10807421 0.19394094 -0.06285566 -0.052575953 0.065250754 -0.021093152 0.08061629
0.21101029 -0.06348678 0.14362374 -0.116184644 0.16266619 0.14950314 0.16071916 -0.11789536
-0.07130454 -0.007961 0.14209987 0.12247691 0.13430493 -0.050322056 0.05160665 0.09810786
0.09639584 -0.11877098 0.06744148 -0.03463887 0.118892744 0.04454492 0.18434311 -0.118575
-0.12843187 0.13276833 0.0010033938 0.06683572 0.23380128 0.07309189 -0.083264306 -0.12273753
0.084680654 -0.057896554 -0.034064595 0.004441948 -0.115370855 0.18484277 0.16851151 0.17126635
-0.027872693 0.019933583 -0.090611264 0.08141682 0.18347691 -0.09198525 0.04901531 0.14397793
-0.019091124 -0.11806516 0.08107746 0.01838297 -0.056486726 -0.09716667 0.017650152 0.20028912
-0.091165185 0.14492649 -0.12248832 0.007258743 0.08288153 -0.089759335 -0.101281695 -0.0061448338
0.05459551 0.15924883 0.08153195 0.1766617 0.034599286 -0.041742466 -0.0095241135 -0.10667372
-0.08973617 -0.10722087 0.06720605 -0.046760365 -0.09918302 0.024711737 -0.108159184 -0.07731947
0.1168894 -0.0056466805 0.16014448 0.06895996 -0.08931428 0.16514097 -0.036054395 -0.020750105
00000000: f220 7b3b 0246 e8bd 33c8 693d 8766 8f3d
00000010: fbfd 0b3d fc5b 2d3d a9d6 183e 75c7 4b3e
00000020: f94a cd3d f69b c0bd 8409 46bd 8978 bcbc
00000030: c25a 053e 404c 233e 7728 a6bd 37b9 e6bd
00000040: 9820 983d cef9 9bbb b178 18bd 75b5 313e
00000050: 35aa 303e 3e7c 1e3e 4bf9 913d 17c6 033e
00000060: 3dfd 22bd 4651 76bd e404 f13d f86f 193e
00000070: 9247 193c 9f1b e4bb b654 af3d 4ccf e8bd
00000080: f74b 753d 0356 dd3d 7498 463e 78ba 80bd
00000090: e259 57bd 30a2 853d 8ccb acbc 271a a53d
000000a0: 1513 583e 5b05 82bd 1a12 133e 37f2 edbd
000000b0: f791 263e 5a17 193e 9093 243e 1f73 f1bd
000000c0: 1d08 92bd db6e 02bc a182 113e 2dd5 fa3d
000000d0: 3b87 093e 801e 4ebd 7f61 533d c6ec c83d
000000e0: 2f6b c53d 333e f3bd c21e 8a3d 7de1 0dbd
000000f0: 0a7e f33d bc74 363d 71c4 3c3e 73d7 f2bd
00000100: a583 03be 6cf4 073e 4f84 833a 2ae1 883d
00000110: 9a69 6f3e 33b1 953d 7a86 aabd d05d fbbd
00000120: 0d6d ad3d f024 6dbd 5187 0bbd c38d 913b
00000130: 8e47 ecbd 6c47 3d3e 488e 2c3e 7260 2f3e
00000140: 4655 e4bc c14b a33c 6692 b9bd ddbd a63d
00000150: 5fe1 3b3e c362 bcbd 47c4 483d f36e 133e
00000160: fd64 9cbc 26cc f1bd f00b a63d e297 963c
00000170: a05e 67bd 52ff c6bd 0d97 903c 9718 4d3e
00000180: d0b4 babd 9c67 143e 28db fabd c0da ed3b
00000190: cbbd a93d bed3 b7bd c76c cfbd 9a5a c9bb
000001a0: 8b9f 5f3d 2012 233e 39fa a63d cee6 343e
000001b0: fbb7 0d3d 26fa 2abd 070b 1cbc c077 dabd
000001c0: 99c7 b7bd 9e96 dbbd 53a3 893d cc87 3fbd
000001d0: 7820 cbbd 4570 ca3c 9082 ddbd ac59 9ebd
000001e0: b663 ef3d ca07 b9bb eafc 233e e13a 8d3d
000001f0: 68ea b6bd b71a 293e c6ad 13bd 20fc a9bc

fc2.weight f4 [4, 128]
0.20679961 -0.024437547 0.066241615 0.1125371 0.13099238 0.056767125 -0.11008258 -0.16960903
0.030623578 0.056734197 0.012455719 0.17314188 -0.07447746 -0.005510483 -0.014773706 0.08713638
0.06514616 0.08536711 -0.0500013 -0.053010482 0.025082612 0.049584504 0.19233856 0.15076613
-0.03844015 -0.07789359 0.049208615 0.012123164 0.13265607 -0.032003295 0.03270682 0.0058774278
0.18117996 0.077893294 -0.07128357 -0.046757128 -0.07056455 0.21626818 0.043947972 0.12568423
-0.05509765 -0.041039146 0.047659278 0.18092066 -0.06742508 -0.092840485 0.07725781 -0.0142783
-0.047696438 0.058048774 0.110909514 -0.06107867 -0.22292009 0.15214838 0.122748435 0.121653974
0.011889224 -0.018146012 0.096257836 -0.05647934 0.16383258 -0.16146709 -0.19203761 -0.04141141
0.1886459 -0.15170361 0.16747867 0.18227729 -0.12816074 -0.075975195 0.05287803 -0.07040723
-0.086642385 -0.001535275 -0.028187437 -0.06864984 0.15872665 -0.016858188 0.17456761 -0.236456
-0.20062739 -0.07949658 -0.07130662 -0.17935102 0.0666108 0.0005994141 -0.09836877 0.14863177
-0.18648647 0.047153093 0.14790317 -0.05486981 0.036968164 0.00183902 -0.1111105 -0.12285385
0.14170845 0.008927538 -0.0037630263 0.10206759 0.17240089 -0.0384719 0.17542009 -0.05203754
0.12809178 -0.07854433 0.0461619 0.07647544 0.14902924 -0.033068106 -0.08882286 -0.054686368
0.17136495 -0.059688114 0.028743457 0.02413724 -0.027170468 0.21033089 0.008182809 0.078998156
0.17714475 -0.02109043 0.059322815 0.13200675 -0.080206364 -0.215252 0.15468459 0.13811114
-0.08064975 0.0882659 -0.016862424 -0.052830923 -0.03236428 0.13463154 -0.11260325 0.070670344
-0.03258815 -0.032618005 -0.12383978 -0.09131755 -0.04323846 -0.029930018 -0.060970556 -0.0001193732
-0.094208315 -0.06127575 0.037022214 -0.015998289 -0.03233285 -0.07128094 -0.00067397946 -0.09631427
-0.19557789 -0.034817122 -0.0066033187 -0.052187562 -0.05526575 0.0351712 0.018332554 0.04027427
-0.108891085 -0.07777284 -0.07156486 -0.008641625 0.047622763 -0.14210954 0.0033813715 -0.1784074
0.037413403 0.023182647 0.0026031365 -0.0055214087 0.05990218 0.11774799 -0.033790443 -0.081066504
0.03352262 -0.16969942 -0.06548284 -0.015966587 -0.05137868 -0.1962568 -0.058782857 0.023246648
0.1092277 -0.045048542 -0.13314389 -0.027657285 -0.0651477 -0.043625474 0.086771995 -0.08015279
-0.11962423 -0.051543668 -0.10318043 -0.10847163 0.07468613 -0.03814203 0.08805377 -0.08712049
-0.051758625 0.038070247 0.04241301 -0.05880009 -0.18854761 -0.040121388 -0.11095271 0.010439086
-0.11278584 -0.0049748914 0.07766003 0.08863896 -0.04620239 -0.01912824 -0.0535142 -0.07920266
-0.23270251 0.014203161 0.021210235 -0.10249817 0.08449239 -0.014572116 -0.15592802 -0.06601662
-0.12906718 -0.07201453 0.065633915 0.05525807 0.06392998 -0.042235978 -0.033388264 -0.019315733
-0.23382707 0.11634565 -0.16429533 -0.026412614 0.02303913 0.0036095814 -0.17874706 0.0011846498
-0.082139686 0.062490486 0.15876038 0.06436177 -0.02525513 -0.13374773 0.03409464 -0.08719732
-0.13061956 0.052009758 -0.1203225 -0.18143249 -0.035117943 0.04527964 -0.039175108 0.025712896
00000000: 47c3 533e 4031 c8bc afa9 873d da79 e63d
00000010: de22 063e a584 683d fa72 e1bd fdad 2dbe
00000020: 4cde fa3c 1e62 683d 1213 4c3c 1b4c 313e
00000030: a387 98bd 4891 b4bb 6a0d 72bc 8f74 b23d
00000040: 5a6b 853d f4d4 ae3d 2ace 4cbd 8521 59bd
00000050: 0d7a cd3c 1f19 4b3d 66f4 443e 7062 1a3e
00000060: 6b73 1dbd ad86 9fbd f98e 493d 3ca0 463c
00000070: fed6 073e e315 03bd 96f7 053d 7097 c03b
00000080: 3d87 393e 8586 9f3d 1ffd 91bd 6784 3fbd
00000090: 2684 90bd 6875 5d3e ca02 343d 5eb3 003e
000000a0: 13ae 61bd aa18 28bd 6036 433d 4443 393e
000000b0: 2916 8abd 2723 bebd 5839 9e3d 88ef 69bc
000000c0: 575d 43bd 8dc4 6d3d 8724 e33d a12d 7abd
000000d0: 2a45 64be c9cc 1b3e 8863 fb3d b825 f93d
000000e0: 05cb 423c f2a6 94bc d422 c53d e156 67bd
000000f0: bac3 273e a157 25be 82a5 44be 039f 29bd
00000100: 642c 413e 3158 1bbe 877f 2b3e e6a6 3a3e
00000110: 923c 03be e298 9bbd a296 583d aa31 90bd
00000120: 9071 b1bd 483b c9ba 57e9 e6bc 4a98 8cbd
00000130: 3d89 223e 2f1a 8abc dac1 323e 8621 72be
00000140: 4471 4dbe 1acf a2bd 3509 92bd cba7 37be
00000150: 3e6b 883d 0022 1d3a 9175 c9bd ed32 183e
00000160: 4ff6 3ebe 9a23 413d ee73 173e 2abf 60bd
00000170: ee6b 173d 460b f13a e78d e3bd cd9a fbbd
00000180: 051c 113e cf44 123c 1b9d 76bb d008 d13d
00000190: dc89 303e b694 1dbd 53a1 333e 5125 55bd
000001a0: 7e2a 033e dadb a0bd 4314 3d3d 289f 9c3d
000001b0: 1f9b 183e 6c72 07bd c2e8 b5bd d0fe 5fbd
000001c0: 4b7a 2f3e 867b 74bd 6677 eb3c 76bb c53c
000001d0: 9a94 debc fb60 573e 3011 063c c9c9 a13d
000001e0: 6f65 353e d6c5 acbc 7bfc 723d c72c 073e
000001f0: 3c43 a4bd 056b 5cbe a365 1e3e 026d 0d3e
00000200: b22b a5bd c1c4 b43d 1123 8abc 3d65 58bd
00000210: 6890 04bd dadc 093e 889c e6bd 9dbb 903d
00000220: 277b 05bd 759a 05bd b69f fdbd b204 bbbd
00000230: d01a 31bd cc2f f5bc 43bc 79bd 0058 fab8
00000240: 4af0 c0bd 48fc 7abd 9ba4 173d d80e 83bc
00000250: 736f 04bd befb 91bd ffad 30ba 6a40 c5bd
00000260: 9245 48be 669c 0ebd a760 d8bb a0c2 55bd
00000270: 575e 62bd ad0f 103d 272e 963c a2f6 243d
00000280: 4a02 dfbd 5e47 9fbd 9990 92bd 9a95 0dbc
00000290: 1610 433d 2a85 11be 009a 5d3b 6eb0 36be
000002a0: cc3e 193d 89e9 bd3c 6299 2a3b efec b4bb
000002b0: fd5b 753d dc25 f13d d967 0abd 3206 a6bd
000002c0: 044f 093d afc5 2dbe de1b 86bd 5ccc 82bc
000002d0: 7372 52bd 8bf7 48be 4bc6 70bd c16f be3c
000002e0: c6b2 df3d d284 38bd df56 08be 8891 e2bc
000002f0: 286c 85bd a0b0 32bd 84b5 b13d 2527 a4bd
00000300: 8cfd f4bd 741f 53bd 4350 d3bd 6026 debd
00000310: 0bf5 983d d13a 1cbd 8955 b43d 3a6c b2bd
00000320: da00 54bd 8cef 1b3d 44b9 2d3d 5dd8 70bd
00000330: a012 41be 5356 24bd 2d3b e3bd b308 2b3c
00000340: 43fc e6bd 6a04 a3bb 390c 9f3d 5888 b53d
00000350: b83e 3dbd d4b2 9cbc b531 5bbd 0135 a2bd
00000360: 9149 6ebe 60b4 683c 16c1 ad3c 90ea d1bd
00000370: 590a ad3d e2bf 6ebc 98ab 1fbe b933 87bd
00000380: 302a 04be 5b7c 93bd 136b 863d 4956 623d
00000390: b9ed 823d a2ff 2cbd 22c2 08bd 073c 9ebc
000003a0: 5d70 6fbe a146 ee3d 093d 28be 445f d8bc
000003b0: 8fbc bc3c ba8e 6c3b 7809 37be 4046 9b3a
000003c0: da38 a8bd 06f6 7f3d 1592 223e 1bd0 833d
000003d0: d9e3 cebc 2af5 08be d2a6 0b3d 8294 b2bd
000003e0: 22c1 05be 2f08 553d a56b f6bd 70c9 39be
000003f0: d5d7 0fbd 2577 393d 1476 20bd daa3 d23c

fc2.bias f4 [4]
-0.07111453 0.047381807 0.036042273 -0.077031076
00000000: 7fa4 91bd 6d13 423d 10a1 133d 78c2 9dbd
