signvoice_ai/models/gesture_model.pth (torch, 37913 bytes, 4 tensors)

fc1.weight f4 [128, 63]
0	0x3be220e0	0.0069008917
1	0x3db56e16	0.08858888
2	0xbd768748	-0.060187608
3	0xbe04ef67	-0.1298195
4	0xbddf19ef	-0.10893618
5	0x3e3f8bbc	0.18705648
6	0xbde75736	-0.11295931
7	0xbe577202	-0.21039584
8	0x3d8ead9b	0.06966706
9	0xbe3b906d	-0.18316813
10	0x3c440079	0.011963003
11	0x3e0a0b9c	0.13480991
12	0xbdcca07c	-0.099915475
13	0xbddd5517	-0.10807245
14	0xbc992be3	-0.018697685
15	0xbd83f206	-0.06442647
16	0xbdd063b7	-0.10175269
17	0x3e0d92a6	0.13825473
18	0xbe3c8277	-0.18409143
19	0x3ba92fa9	0.0051631522
20	0x3e26bf23	0.1628385
21	0xbd15eaa9	-0.036600742
22	0x3caf8f81	0.021430733
23	0xbd80cf05	-0.06289486
24	0xbe15fd4c	-0.14647406
25	0x3dc814dd	0.09769604
26	0xbd19dd65	-0.037564654
27	0xbe4866cb	-0.19570462
28	0x3dd3b51e	0.1033728
29	0x3e49b866	0.19699249
30	0xbe450556	-0.19240317
31	0xbd5e24bf	-0.054234263
32	0x3e7228df	0.23648404
33	0xbe9a4f9d	-0.30138865
34	0x3d92d3c4	0.07169297
35	0x3e1d18e8	0.15341532
36	0xbe703fc4	-0.23461825
37	0xbcbd9600	-0.023142815
38	0x3da1f31c	0.079076976
39	0xbe1790b4	-0.14801294
40	0x3d987075	0.074433245
41	0x3e086eaa	0.13323465
42	0xbdcf404a	-0.10119684
43	0x3dc71f66	0.09722786
44	0xbd1778f7	-0.036980595
45	0xbe520d9e	-0.20513007
46	0x3b46a7ad	0.0030312345
47	0xbc88a409	-0.01667978
48	0xbe56481e	-0.20925948
49	0xbe15e3f2	-0.14637735
50	0xbb4b3b66	-0.0031010746
51	0xbd24046b	-0.040043276
52	0x3dfcf995	0.123522915
53	0x3c9fced3	0.019507801
54	0xbe774ab0	-0.24149585
55	0x3ad64c8e	0.0016349719
56	0xbd95c607	-0.07313161
57	0xbda53609	-0.08066947
58	0x3e72bab0	0.23704028
59	0x3d8c5a63	0.068531774
60	0xbe38d542	-0.18050101
61	0x3e3cebbc	0.184493
62	0x3c3c17ad	0.011480254
63	0xbcbfbbb0	-0.023404926
64	0x3c283100	0.010265589
65	0xbcd40054	-0.025879063
66	0x3cab3fce	0.020904448
67	0x3e6a826d	0.22901316
68	0xbe5186e8	-0.20461619
69	0x3dda2ff3	0.10653677
70	0x3e2bd51a	0.1678051
71	0xbd98c549	-0.07459504
72	0x3c0a338e	0.008435143
73	0x3e57b1da	0.21063939
74	0xbe020c7f	-0.1270008
75	0x3bb2ac62	0.0054526785
76	0x3dd4f777	0.10398763
77	0xbd293ddf	-0.04131877
78	0x3d82f8e0	0.063951254
79	0x3c796085	0.015220766
80	0xbdecd44b	-0.11563929
81	0xbd2739c4	-0.040826574
82	0xbd6ba8d7	-0.057534065
83	0xbd8755f9	-0.06608195
84	0x3c5c0c62	0.013430687
85	0xbe525892	-0.205416
86	0xbe408518	-0.18800771
87	0x3cd5dc53	0.026106035
88	0xbe2f1305	-0.17097099
89	0xbcb896da	-0.02253287
90	0x3e04a6f4	0.12954313
91	0x3d1417b3	0.036155414
92	0xbd5313f0	-0.051532686
93	0x3d3922a3	0.045199048
94	0xbdf439b1	-0.11925066
95	0xbe174788	-0.14773381
96	0x3d9563af	0.07294404
97	0xbc80e807	-0.01573564
98	0xbe267d60	-0.16258764
99	0xbdb46ed1	-0.08810199
100	0x3dbab7ad	0.091170646
101	0xbe541a96	-0.20713267
102	0xbccf433b	-0.025300613
103	0x3ddd6634	0.10810509
104	0xbd09be9e	-0.033629052
105	0x379c36a0	1.8622086e-05
106	0xbe0474e6	-0.12935218
107	0xbe8c48bc	-0.27399242
108	0xbd190e4c	-0.03736715
109	0x3e197200	0.14984894
110	0xbe6a5ed1	-0.22887732
111	0xbd3234e4	-0.04350747
112	0x3e098731	0.13430478
113	0xbd2d3396	-0.042285524
114	0x3e06f75d	0.13180299
115	0x3d2772b2	0.040880866
116	0xbe1f9c6b	-0.15587012
117	0xbcba1536	-0.022715192
118	0xbc4dc9cb	-0.012560318
119	0xbe87b1b8	-0.26502776
120	0x3df11411	0.117714055
121	0x3afcb926	0.0019281253
122	0xbe11b6e7	-0.14229928
123	0x3d909da3	0.07061317
124	0xbcaf2a9f	-0.021382628
125	0xbe7aa920	-0.24478579
126	0x3dffd298	0.124913394
127	0x3ce49750	0.027904183
128	0xbcf0df1c	-0.029403262
129	0xbd90e2b9	-0.07074494
130	0x3dbdd3b6	0.09268896
131	0xbdda5a8e	-0.10661803
132	0x3dbad7df	0.091232054
133	0x3e1b83f4	0.15187055
134	0xbe1d71c5	-0.15375431
135	0x3dc147d3	0.094375275
136	0x3e6525f1	0.22377755
137	0xbe7534c1	-0.23945905
138	0x3e17f51a	0.14839593
139	0x3e88d9e6	0.26728743
140	0xbe49100e	-0.1963503
141	0x3d0ce8f4	0.03440185
142	0x3dbd5233	0.09244194
143	0xbe2e9242	-0.1704798
144	0xbda0c513	-0.07850089
145	0xbdf97be7	-0.121818356
146	0xbe2af322	-0.1669431
147	0x3d986e5b	0.07442924
148	0xbd1fb33c	-0.03898929
149	0xbd44c3f5	-0.04803844
150	0x3daf5f89	0.08563144
151	0xbe3f327d	-0.18671604
152	0xbe4b1861	-0.19833519
153	0x3e380b13	0.17972974
154	0x3e1e8898	0.15481794
155	0xbdfbb13a	-0.12289663
156	0x3e295619	0.1653675
157	0xbe1b4b3e	-0.15165421
158	0xbe5353f7	-0.20637499
159	0x3d66459f	0.05621874
160	0xbe0ff26f	-0.14057325
161	0xbe54b8b5	-0.20773585
162	0x3dd1566a	0.1022156
163	0xbb814b72	-0.0039457614
164	0xbd9c9af4	-0.076467425
165	0x3da53119	0.08066005
166	0x3cbc1285	0.02295805
167	0xbdda0696	-0.106457874
168	0xbd1261dc	-0.035737857
169	0x3d730cb1	0.059338275
170	0xbe3e9fa1	-0.18615581
171	0x3d9d5d56	0.07683818
172	0xbe0e4a3f	-0.1389551
173	0x3a46ffda	0.00075912254
174	0x3d8da679	0.06916518
175	0xbe4dde36	-0.20104298
176	0xbe211f1b	-0.15734522
177	0xbd7eabb6	-0.062175475
178	0xbdb77c82	-0.08959295
179	0xbd51de13	-0.051237177
180	0x3d5fd194	0.05464323
181	0xbdf15510	-0.117838025
182	0xbdb190ba	-0.086701825
183	0x3e08f5b4	0.13374978
184	0xbcc6c9b0	-0.024266094
185	0xbca79e1e	-0.020461138
186	0x3d23e8ec	0.040017053
187	0xbe4913e8	-0.196365
188	0x3bf52b92	0.0074820006
189	0x3db38966	0.08766441
190	0x3da2e2b0	0.079533935
191	0xbdef2a24	-0.116779596
192	0xbddd442f	-0.108040206
193	0x3e8f9636	0.2804429
194	0xbdddfba8	-0.10839015
195	0xbe098585	-0.1342984
196	0x3e841639	0.25798205
197	0xbea03d4d	-0.3129677
198	0xbe359e20	-0.17736101
199	0x3d639ca1	0.055569295
200	0xbe81faa9	-0.2538655
201	0xbe0ff65c	-0.14058822
202	0x3dd31c5e	0.10308145
203	0xbe33ad07	-0.17546473
204	0xbc198683	-0.009370449
205	0x3e0c6ab6	0.13712582
206	0xbe9a5958	-0.3014629
207	0x3ae21de9	0.0017251346
208	0xbe31197f	-0.17294882
209	0xbe57582f	-0.21029733
210	0xbdb8c989	-0.09022815
211	0xbe3bc1ae	-0.18335602
212	0xbd9e87e1	-0.077407606
213	0xbe0713e0	-0.13191175
214	0xbdbc25f3	-0.09186926
215	0xbdc948d4	-0.09828344
216	0x3c3f1591	0.011662857
217	0xbd080626	-0.03320899
218	0xbdfbf68d	-0.12302885
219	0x3d4d9c33	0.05019779
220	0xbde71ec4	-0.11285165
221	0xbe000728	-0.1250273
222	0x3df9a094	0.12188831
223	0x3dad011a	0.08447476
224	0xbe9cf413	-0.30654964
225	0x3bcd1bab	0.006259402
226	0x3dd5b68b	0.10435208
227	0xbe48ffd3	-0.19628839
228	0x3decbe0c	0.11559686
229	0x3d6e7545	0.058217306
230	0xbe72a6b8	-0.2369641
231	0xbcbb62f1	-0.022874327
232	0xbdeba1d9	-0.11505479
233	0xbe8c3432	-0.27383572
234	0x3e457c16	0.19285616
235	0x3dd223cc	0.10260734
236	0xbe90fb0e	-0.2831654
237	0x3e4493a6	0.19196948
238	0x3dfef901	0.124498375
239	0xbe5ce7d5	-0.21572812
240	0x3d260ced	0.04053967
241	0xbdf47385	-0.11936096
242	0xbe739293	-0.23786382
243	0x3e1e269d	0.15444417
244	0xbd9565b1	-0.07294787
245	0xbe66d994	-0.22543937
246	0x3daab211	0.08334745
247	0xbd258a7c	-0.040415272
248	0xbdc1fbf8	-0.09471887
249	0x3d802fa1	0.062590845
250	0xbe1fc2f0	-0.15601707
251	0xbe707755	-0.23483022
252	0x3df5f8b2	0.120103255
253	0xbdb64e04	-0.08901599
254	0xbdd22298	-0.102605045
255	0x3dea62ba	0.11444612

fc1.bias f4 [128]
0	0x3dca0a12	0.09865202
1	0x3c78bbbd	0.015181479
2	0x3d60cbc2	0.05488182
3	0xbdc2b774	-0.09507647
4	0xbda9986a	-0.08281024
5	0xbd966d1e	-0.07345031
6	0x3da6215a	0.0811183
7	0x3dd18358	0.1023013
8	0xbc1ad8e4	-0.009451125
9	0x3e4987d4	0.1968072
10	0x3d663cea	0.056210436
11	0xbd1ca35a	-0.03824172
12	0xbd643f53	-0.055724453
13	0x3ccd41f6	0.025055867
14	0x3dc12472	0.094307795
15	0xbd64d215	-0.055864412
16	0x3dad6874	0.084671885
17	0xbe28beae	-0.16478989
18	0xbd93584e	-0.07194577
19	0xbddf2e21	-0.1089747
20	0x3d0c47f4	0.034248307
21	0xbe0b4235	-0.13599475
22	0xbdb2de2a	-0.08733781
23	0x3e0fad0c	0.14030856
24	0x3db2a801	0.087234505
25	0xbdce77e0	-0.10081458
26	0x3d10437c	0.035220608
27	0xbdfed0c7	-0.12442165
28	0xbdbe07d6	-0.09278838
29	0x3d9acd85	0.07558731
30	0x3e3015d3	0.17195825
31	0x3e072c8d	0.13200589
32	0x3da0a292	0.07843508
33	0x3d9e3978	0.07725805
34	0x3bacb09d	0.0052700774
35	0xbdca6ca2	-0.09884001
36	0xbe0101c1	-0.12598325
37	0xbdc1951a	-0.09452267
38	0xbde87df2	-0.11352147
39	0xbdd290c4	-0.10281518
40	0x3dbdbabe	0.09264134
41	0x3e087da1	0.13329174
42	0x3dc830d3	0.097749375
43	0x3e37aecf	0.17937778
44	0xbddf7dfe	-0.10912703
45	0x3d96b686	0.07359032
46	0x3e439216	0.19098696
47	0x3dfbbf12	0.12292303
48	0xbdcadd6a	-0.09905513
49	0xbe039e93	-0.1285346
50	0xbd4694da	-0.0484818
51	0x3d148792	0.036262102
52	0x3d5da2a0	0.05411017
53	0xbddff7e0	-0.1093595
54	0xbd16d878	-0.036827534
55	0xbb75e57d	-0.003752082
56	0xbbb980f0	-0.0056611225
57	0xbdf68197	-0.12036436
58	0x3e1f7cf9	0.15575017
59	0x3cd634a0	0.02614814
60	0xbcfbbb14	-0.030728854
61	0x3e451140	0.19244862
62	0xbe0c27dc	-0.1368708
63	0x3dc31a70	0.09526527
64	0x3db76403	0.089546226
65	0x3df489cd	0.11940346
66	0xbbf94117	-0.0076066363
67	0x3e384b88	0.17997563
68	0x3dc22a7a	0.09480758
69	0xbdbdea50	-0.09273207
70	0x3dd0f702	0.10203363
71	0xbdbfde55	-0.09368578
72	0xbd16db22	-0.036830075
73	0x3e391e46	0.18077955
74	0x3e046193	0.12927847
75	0xbd118528	-0.03552738
76	0x3c0d8aea	0.008639077
77	0x3dcc4bc9	0.09975392
78	0x3dea3286	0.11435418
79	0x3e04e1f1	0.12976815
80	0x3d4ec34f	0.05047923
81	0x3d930a10	0.07179654
82	0xbd99b7de	-0.07505773
83	0x3e15374a	0.14571872
84	0x3d7141c2	0.058900602
85	0xbd27d874	-0.04097791
86	0x3defec3b	0.11714979
87	0x3e8cc5f2	0.2749477
88	0xbd2eaff0	-0.042648256
89	0x3e2a874a	0.16653171
90	0x3dc8df9d	0.09808276
91	0x3d29c3ef	0.041446622
92	0xbdcd1f16	-0.10015695
93	0xbb9f5fdf	-0.0048637236
94	0x3d135945	0.035973806
95	0x3b9a549a	0.0047097923
96	0xbda47bbf	-0.08031415
97	0x3d8f7fea	0.070068195
98	0xbd9d9328	-0.076940835
99	0xbd076bb9	-0.033061717
100	0xbe2df149	-0.16986574
101	0x3e28202a	0.1641852
102	0x3de57319	0.11203594
103	0x3dc90fed	0.09817491
104	0x3da89c33	0.08232918
105	0x3e1dcb74	0.15409642
106	0x3db80be5	0.08986644
107	0x3d034d65	0.03205623
108	0xbd309540	-0.043111086
109	0x3d9a2702	0.075269714
110	0xbd66dab1	-0.056360904
111	0x3c48c1b8	0.012253217
112	0x3d80a498	0.06281394
113	0x3b3542f7	0.0027658322
114	0xbddb6a40	-0.10713625
115	0x3e2182b0	0.1577251
116	0xbcd6342b	-0.026147923
117	0x3e08a771	0.13345124
118	0xbdc10298	-0.09424323
119	0x3e2031fc	0.15644068
120	0xbdf2be76	-0.11852734
121	0xbdd2a9a8	-0.102862656
122	0x3c8c8ac9	0.017156022
123	0x3d7f4308	0.062319785
124	0xbd562849	-0.052284513
125	0xbd5da93e	-0.05411648
126	0xbdacd3ca	-0.08438833
127	0x3e3617b0	0.17782474

fc2.weight f4 [5, 128]
0	0x3e0f8ba6	0.14018115
1	0x3d157170	0.036485136
2	0x3df136c3	0.11778023
3	0xbc408dd4	-0.011752564
4	0xbd480619	-0.04883394
5	0xbdab1b1f	-0.08354782
6	0xbd171f8b	-0.036895316
7	0xbcb4a1a8	-0.02204974
8	0x3dd7d53f	0.1053872
9	0xbdad84d4	-0.084726006
10	0x3dbf8191	0.09350885
11	0xbc70a8e0	-0.0146887
12	0x3dca9a04	0.098926574
13	0x3e71232f	0.23548578
14	0xbc6d1efc	-0.014472719
15	0xbd84b4c4	-0.06479791
16	0x3e7c166b	0.24617927
17	0x3e7ebb75	0.24876197
18	0x3d0d085c	0.0344318
19	0x3e47e020	0.1951909
20	0xbdd141ba	-0.102176145
21	0x3bee9612	0.0072810734
22	0xbdacea11	-0.08443082
23	0xbe07624e	-0.13221094
24	0x3dcd44cb	0.10022887
25	0x3d801877	0.06254666
26	0xbe80926b	-0.25111708
27	0x3d8f5dff	0.0700035
28	0x3a9354f6	0.001124053
29	0x3dd3baf9	0.103383966
30	0xbe529dfd	-0.2056808
31	0xbce8beec	-0.028411351
32	0x3df85130	0.1212486
33	0x3d9a9705	0.07548336
34	0x3e13d1e6	0.14435539
35	0xbd83ef97	-0.064421825
36	0xbd967fa7	-0.073485665
37	0xbc4c8100	-0.012481928
38	0xbd42626e	-0.04745715
39	0x3d47fc2e	0.04882448
40	0x3dc7d5ac	0.097575516
41	0xbe326877	-0.17422663
42	0xbe24d373	-0.16096286
43	0xbc806685	-0.015673885
44	0x3c668c70	0.014071569
45	0x3e51d91a	0.20492974
46	0xbe940b89	-0.2891505
47	0x3d8a30ab	0.06747564
48	0x3d7e7ada	0.06212888
49	0xbdac65f0	-0.084178805
50	0xbb7ad8a0	-0.0038276091
51	0x3d7424da	0.059605457
52	0x3e6a9f14	0.22912246
53	0x3d14d891	0.036339346
54	0x3e7a44c1	0.2444029
55	0x3e284242	0.16431525
56	0x3e26f40b	0.16304033
57	0x3e8335fd	0.25627127
58	0x3bed1faf	0.007236443
59	0x3de209ab	0.11037
60	0x3ca3949c	0.019968323
61	0xbe3b13d0	-0.18269277
62	0x3d75400d	0.059875537
63	0xbcab3516	-0.020899337
64	0xbe4c7091	-0.19964816
65	0x3d75dc3e	0.060024492
66	0x3e295d66	0.16539535
67	0xbc2ed071	-0.0106698135
68	0x3e561309	0.20905699
69	0xbd8a28de	-0.06746076
70	0x3e56484c	0.20926017
71	0xbcb74534	-0.022371866
72	0x3d355f0e	0.044280104
73	0xbe0b3caf	-0.13597368
74	0x3e068b6f	0.13139127
75	0xbd2af22e	-0.041734867
76	0x3da55029	0.0807193
77	0x3dfe6e5a	0.12423392
78	0x3e456568	0.19276965
79	0x3db52512	0.08844961
80	0xbd437ad0	-0.047724545
81	0x3e21d455	0.15803654
82	0x3d85acc4	0.06527093
83	0xbd52f764	-0.05150546
84	0x3e1ac7b5	0.15115245
85	0x3d8d63b7	0.06903785
86	0xbea7fbae	-0.32809204
87	0xbd833323	-0.06406238
88	0x3dcbffc2	0.09960891
89	0x3cd03770	0.02541706
90	0xbe033985	-0.1281491
91	0x3d8761a8	0.06610423
92	0xbd8fb5c4	-0.07017091
93	0x3d8aea5a	0.0678298
94	0xbe03e6d2	-0.1288102
95	0x3e203816	0.15646395
96	0xbd771f16	-0.06033238
97	0x3de2dda2	0.11077429
98	0xbd665f39	-0.056243155
99	0xbd65fd22	-0.05614961
100	0x3e812a13	0.25227413
101	0xbddd85d1	-0.10816539
102	0x3e5913ec	0.21199006
103	0xbe146c98	-0.1449455
104	0xbe47e3d0	-0.19520497
105	0xbe647a06	-0.22312173
106	0x3dd6f04a	0.1049505
107	0xbe93854c	-0.28812635
108	0x3d0383bb	0.03210805
109	0x3dde49b7	0.10853904
110	0x3d3f9a7a	0.04677818
111	0xbe7b1ee3	-0.24523501
112	0x3e3c5a8b	0.18393914
113	0xbc665b33	-0.0140598295
114	0x3e41cb43	0.18925194
115	0x3e20f3db	0.15718023
116	0xbd5003a6	-0.05078473
117	0x3debf621	0.11521555
118	0xbd071b1a	-0.03298483
119	0x3dfc5201	0.123203285
120	0x3dee01bd	0.11621425
121	0xbdad7dcd	-0.0847126
122	0xbd41e701	-0.047339443
123	0x3e0b908c	0.13629359
124	0x3e0c6b11	0.13712718
125	0xbbdd2c30	-0.0067496523
126	0x3d6fe5da	0.058568813
127	0xbde03816	-0.109481975
128	0xbdac8f7f	-0.08425807
129	0xbe136b90	-0.143965
130	0xbdded886	-0.10881142
131	0xbe2562ae	-0.16150925
132	0xbbba8960	-0.005692646
133	0xbdad98e4	-0.08476427
134	0xbe16f669	-0.14742436
135	0xbd0b798a	-0.034051456
136	0xbe195f44	-0.14977747
137	0x3cecd55e	0.028910335
138	0x3ba143f8	0.0049214326
139	0x3daef0d1	0.08542026
140	0xbe075b31	-0.1321838
141	0xbdc60b8d	-0.09670172
142	0xbdb62cf0	-0.0889529
143	0xbdb5b296	-0.08871953
144	0xbe2bf470	-0.16792464
145	0xbe1b6a19	-0.15177192
146	0x3cdeac6c	0.027181827
147	0xbd98f557	-0.0746867
148	0xbe0752a0	-0.13215113
149	0x3d2f9006	0.04286196
150	0x3b9d4a4e	0.0048001176
151	0xbd86cda5	-0.06582192
152	0xbdb4f334	-0.0883545
153	0x3b241120	0.0025034621
154	0xbe04a6a9	-0.12954201
155	0xbd6aa65e	-0.057287566
156	0xbd24ddd2	-0.040250607
157	0x3e6dde9a	0.23229447
158	0xbc210bc6	-0.009829467
159	0xbd5986f0	-0.053107202
160	0xbc29c6b7	-0.010362319
161	0xbd8e6ff0	-0.06954944
162	0xbe0c8566	-0.13722762
163	0xbc25a242	-0.010109486
164	0xbd165318	-0.036700338
165	0xbc92e01c	-0.01792913
166	0x3d1dfcee	0.03857129
167	0x3acdbfc0	0.0015697405
168	0x3c5cdd9f	0.013480573
169	0x3c2fb775	0.010724892
170	0xbe066dcf	-0.13127826
171	0xbcb174a7	-0.02166207
172	0xbd03e2cd	-0.032198716
173	0xbe1a4f23	-0.15069251
174	0x3dd085b0	0.10181749
175	0xbdc24c1e	-0.094871745
176	0xbd2b7632	-0.041860767
177	0x3b9344fb	0.004494307
178	0x3d9dabe9	0.07698805
179	0xbe3d393d	-0.18478866
180	0xbe1d99d7	-0.15390716
181	0x3d621f42	0.05520559
182	0xbd6021eb	-0.054719847
183	0xbdb1b023	-0.086761735
184	0xbd3e2f2d	-0.04643171
185	0xbe0e52e9	-0.13898815
186	0xbdfd4603	-0.12366869
187	0xbd121bec	-0.03567116
188	0x3d6dd220	0.05806172
189	0xbd736ec4	-0.059431806
190	0x3d098217	0.03357133
191	0xbdb7dd78	-0.08977789
192	0xbe82b885	-0.25531402
193	0xbdf26182	-0.118350044
194	0xbe5c81bc	-0.21533865
195	0x3d663ed1	0.05621225
196	0xbd88f0fa	-0.06686588
197	0xbc88533b	-0.01664125
198	0xbe2ed7c8	-0.17074502
199	0xbcf066a3	-0.029345816
200	0x3ca1b060	0.019737422
201	0xbc4f0a61	-0.012636752
202	0xbe48edcb	-0.19621961
203	0xbd6bb9a5	-0.05755009
204	0xbe3034df	-0.17207669
205	0x3e11d845	0.14242657
206	0xbe0e6955	-0.13907368
207	0xbdab04ad	-0.08350501
208	0xbccc63ee	-0.024949994
209	0xbc804bd3	-0.015661156
210	0x3d97f046	0.074188754
211	0x3d7e4456	0.06207689
212	0xbe5aae9e	-0.21355674
213	0xbd7f8524	-0.062382832
214	0x3e00fe40	0.12596989
215	0x3e3b594e	0.18295786
216	0xbd7b3cbb	-0.061337214
217	0xbd388db7	-0.045057025
218	0xbde0638a	-0.109564856
219	0xbe141a5e	-0.14463183
220	0xbc24ba51	-0.010054187
221	0xbe386e83	-0.18010907
222	0xbc5cd1b2	-0.01347773
223	0x3da1fde9	0.07909758
224	0x3cce8017	0.025207562
225	0xbda07519	-0.078348346
226	0x3d5c85d6	0.053838573
227	0xbe0626b0	-0.13100696
228	0xbe13f93e	-0.14450547
229	0x3d3f0ba2	0.046641953
230	0xbe67e745	-0.22646816
231	0xbdb173cb	-0.08664664
232	0x3e2e3879	0.1701373
233	0xbd3d70e8	-0.046250254
234	0xbe36b702	-0.1784325
235	0xbe39101c	-0.18072551
236	0xbc5ff2bc	-0.013668712
237	0xbd059fe3	-0.032623183
238	0xbe378678	-0.1792239
239	0xbe7857b1	-0.24252202
240	0xbdc5a588	-0.09650713
241	0xbcc86299	-0.024461078
242	0xbdc9673b	-0.09834143
243	0xbda0e014	-0.078552395
244	0x3d758cef	0.059948858
245	0x3d8596ad	0.0652288
246	0xbd937234	-0.07199517
247	0x3cbacb4e	0.022802021
248	0xbe2259e4	-0.15854603
249	0xbc597b08	-0.013273962
250	0xbd950239	-0.072758146
251	0xbe6a3602	-0.22872165
252	0xbdf0fdce	-0.117671594
253	0x3c8836a8	0.016627625
254	0xbd774bec	-0.06037514
255	0x3d8b17c5	0.06791643

fc2.bias f4 [5]
0	0x3d3c8aff	0.046030995
1	0x3db1dc66	0.08684616
2	0x3e2a59a2	0.16635755
3	0xbdbdb7a2	-0.09263541
4	0x3c165d93	0.009177583
